best_attentionunet_weights.pth (torch, 309378 bytes, 8 tensors)

encoder_conv1.weight f4 [64, 3, 3, 3]
0	0xbd919084	-0.07107642
1	0xbda6d088	-0.08145243
2	0xbda42e42	-0.080166355
3	0xbc6f3776	-0.014600625
4	0x3c4acfe8	0.01237867
5	0xbcadc39e	-0.021211442
6	0x3ccf025e	0.025269683
7	0x3c3227df	0.010873764
8	0xbcc5734b	-0.024102828
9	0xb9842a80	-0.00025208667
10	0x3aaf9ea2	0.0013398717
11	0xbcc4b4c6	-0.02401198
12	0xbbbc42c8	-0.0057452656
13	0xbcd30c2d	-0.025762642
14	0xbd46b346	-0.048510812
15	0xbcc77a15	-0.024350205
16	0xbcaf62e0	-0.021409452
17	0xbcced3d3	-0.02524749
18	0x3cc61b41	0.024182918
19	0xbce93fe4	-0.028472848
20	0x3d066b40	0.032817125
21	0x3dc5e28a	0.096623495
22	0xbcdc2766	-0.026874255
23	0x3d34baff	0.044123646
24	0x3cceb6f1	0.025233718
25	0x3d359e6c	0.044340536
26	0x3d085918	0.03328809
27	0xbcd8a388	-0.026445165
28	0x3d268d18	0.0406619
29	0x3da1c6af	0.07899224
30	0x3dc431a8	0.09579784
31	0x3c57142e	0.01312737
32	0x3d33928d	0.043840934
33	0x3d15cfcb	0.03657512
34	0x3d8966b1	0.0670904
35	0xbda79462	-0.08182599
36	0xbba2100f	-0.004945762
37	0xbd6e25c7	-0.058141496
38	0xbdc65966	-0.0968502
39	0x3d96aa13	0.07356658
40	0xbd8e6f7a	-0.06954856
41	0x3dbdd8ca	0.09269865
42	0x3d2c56e7	0.042075064
43	0xbd87cfd9	-0.06631441
44	0x3d9cd6cf	0.07658159
45	0x3d7ff999	0.062493894
46	0xbd7f03a8	-0.062259346
47	0xbda68086	-0.08129983
48	0x3db8cd0f	0.09023487
49	0xbd8789dd	-0.06618092
50	0x3c41d66a	0.011830905
51	0xbbef7352	-0.0073074484
52	0xbdb3fc31	-0.08788336
53	0x3d843907	0.064561896
54	0x3d9a713f	0.07541131
55	0xbd682e06	-0.056684516
56	0x3d5422bd	0.05179094
57	0xbddac017	-0.106811695
58	0x3c8b0f1b	0.016974976
59	0xbcdfb027	-0.027305676
60	0xbcb61438	-0.022226438
61	0x3d2e8109	0.042603526
62	0xbd3e68c6	-0.04648664
63	0x3cd0ec29	0.025503235
64	0xbd90c23a	-0.07068296
65	0x3cf0ed81	0.029410126
66	0x3b4943dc	0.0030710613
67	0x3ccf19d8	0.025280878
68	0x3cbc3568	0.022974685
69	0x3d154736	0.036444865
70	0x3d53aa64	0.05167617
71	0xbd80d0b6	-0.062898085
72	0xbd9bacff	-0.07601356
73	0xbce2b2cd	-0.02767315
74	0xbda56816	-0.080764934
75	0x3d2e161c	0.042501554
76	0x3da1956e	0.078898296
77	0xbd6287e7	-0.055305388
78	0x3d61744a	0.055042543
79	0x3ca83c46	0.020536553
80	0x3d92bec5	0.07165293
81	0xbc9d7407	-0.019220365
82	0xbc99f969	-0.018795686
83	0xbd833325	-0.064062394
84	0xbdadb5b1	-0.084819205
85	0x3db62068	0.088929
86	0xbb98c589	-0.00466222
87	0x3c97fac2	0.018552188
88	0xbd402045	-0.046905775
89	0xbcdec7fb	-0.027194967
90	0xbd3d09d5	-0.046151955
91	0xbcaaeea2	-0.020865742
92	0x3da630a0	0.08114743
93	0x3d6fc7d5	0.058540184
94	0x3ce83b8f	0.028348712
95	0x3d07f8f4	0.033196405
96	0xbd454ed9	-0.048170898
97	0xbcf8050d	-0.030275846
98	0xbc5e4cca	-0.013568113
99	0xbc135bbd	-0.00899404
100	0xbd2399e7	-0.039941695
101	0xbc2a2ba6	-0.010386383
102	0xbb989250	-0.0046561137
103	0x3c885445	0.016641745
104	0x3c8c3726	0.01711614
105	0xba5bb409	-0.00083810143
106	0x3d84afc1	0.06478835
107	0x3d15a497	0.03653392
108	0xbd8bf293	-0.06833377
109	0x3d9d132a	0.07669671
110	0xbce87fe2	-0.028381292
111	0x3dbf5638	0.09342617
112	0xbd78eaa3	-0.060770642
113	0x3daff7c0	0.085921764
114	0xbd6ba074	-0.057526067
115	0x3d8c828c	0.06860837
116	0xbd3d86ce	-0.046271138
117	0xbc73112c	-0.014835637
118	0x3cba6ff2	0.022758458
119	0xbd251710	-0.040305197
120	0x3d9177e7	0.07102948
121	0xbd637903	-0.055535328
122	0xbd474fea	-0.048660196
123	0xbd243fb4	-0.040099815
124	0xbd58905e	-0.052872054
125	0x3df9a117	0.121889286
126	0xbd868be6	-0.06569652
127	0xbd4746fc	-0.04865168
128	0x39b3052f	0.00034145403
129	0xbc8c2626	-0.017108034
130	0xbd9f326b	-0.07773288
131	0xbb2f70e8	-0.0026770178
132	0xbb3a8437	-0.0028460154
133	0x3df3d50e	0.11905871
134	0xbd8e395f	-0.069445364
135	0x3ac9d179	0.0015397511
136	0xbd9a86ab	-0.07545217
137	0x3d341eba	0.043974616
138	0xbd5fcf54	-0.054641083
139	0xbdaa920f	-0.0832864
140	0xbcd98003	-0.026550299
141	0xbd9f39b4	-0.07774678
142	0x3db469b0	0.08809221
143	0x3d934e23	0.07192638
144	0xbd9c2c4e	-0.07625638
145	0x3c9d2cc9	0.019186394
146	0x3bc9d91d	0.006159915
147	0xbc02a93a	-0.007974917
148	0xbd39774c	-0.045279786
149	0xbd0a48e5	-0.033760924
150	0x3d3bebdf	0.04587924
151	0xbc4ce60c	-0.012506019
152	0xbd990463	-0.0747154
153	0xbca6bcf7	-0.020353777
154	0xbdaa4e07	-0.08315664
155	0x3d522d48	0.051312715
156	0xbcd0936b	-0.02546092
157	0xbcd1c02c	-0.02560433
158	0x3dad7abe	0.08470677
159	0x3d76a1ae	0.060212784
160	0x3cfb83e0	0.030702531
161	0x3c88dd56	0.016707104
162	0xbc4730db	-0.012157644
163	0xbd3a2651	-0.045446698
164	0xbd7e861f	-0.062139627
165	0x3d3c1150	0.045914948
166	0xbca1a08a	-0.019729871
167	0xbd99b082	-0.07504369
168	0x3cc0dbc2	0.023542289
169	0x3d05b5df	0.03264415
170	0x3d770749	0.060309682
171	0x3d76b6c4	0.060232893
172	0xbd559552	-0.052144356
173	0x3db14cba	0.086572126
174	0xbd8e5024	-0.06948879
175	0x3c12c7d9	0.00895878
176	0x3db781db	0.08960315
177	0xbd949e49	-0.07256753
178	0xbd8a7061	-0.06759716
179	0x3d383639	0.044973586
180	0xbd2e61d2	-0.042573757
181	0xbd1bb062	-0.03801001
182	0x3cf2ab99	0.02962284
183	0x3db30be1	0.087425
184	0x3d8c5466	0.06852035
185	0xbcb4ad60	-0.022055328
186	0x3d771850	0.06032592
187	0xbd790556	-0.060796104
188	0xbd1b94f2	-0.037983842
189	0x3d184bed	0.037181783
190	0x3d6320a1	0.05545104
191	0xbd9c910f	-0.07644855
192	0xbd8da127	-0.06915503
193	0xbc314db6	-0.01082175
194	0xbda30692	-0.079602376
195	0xbb0f1dd2	-0.0021837843
196	0xb9c31de5	-0.00037215572
197	0x3db8ed7e	0.09029673
198	0xbd8ac307	-0.0677548
199	0x3c04f234	0.008114386
200	0x3d0549fa	0.032541253
201	0x3dcbaa2d	0.09944568
202	0xbd3f349b	-0.046681028
203	0xbd65b160	-0.05607736
204	0x3d7c8a75	0.06165548
205	0x3cb363c5	0.02189816
206	0xbd3d4c14	-0.046215132
207	0x3d506edf	0.050886985
208	0x3da36f4b	0.07980212
209	0x3dbccd0c	0.09218797
210	0xbd302e95	-0.043013174
211	0x3c1250f6	0.008930435
212	0xbdc175a1	-0.09446264
213	0x3d5625e6	0.052282237
214	0xbd71a128	-0.05899158
215	0xbce64b02	-0.028111938
216	0x3c9eb937	0.019375427
217	0xbcd567d4	-0.026050486
218	0xbd50eb48	-0.05100563
219	0x3d96a4e0	0.07355666
220	0xbdc41d16	-0.0957586
221	0x3d0deb48	0.03464821
222	0xbdd0851d	-0.10181639
223	0xbc870cbb	-0.016485563
224	0xbd3eb621	-0.04656041
225	0xbd983d91	-0.07433618
226	0xbc8ba550	-0.0170466
227	0x3db8e1f2	0.09027471
228	0xbc98bfb0	-0.018646091
229	0x3cd6c8f9	0.026218878
230	0x3d19886b	0.037483614
231	0xbd450b3a	-0.04810641
232	0x3d9e737c	0.07736871
233	0xbc92033e	-0.017823812
234	0x3dd4b1ed	0.10385499
235	0xbd72bf8d	-0.05926471
236	0xbc91e904	-0.017811306
237	0x3d9f7390	0.07785714
238	0xbd172393	-0.03689916
239	0x3cf4f69d	0.02990275
240	0xbaec319e	-0.0018020158
241	0x3bcf0877	0.0063181478
242	0x3d91cb01	0.07118798
243	0xbd8a515c	-0.06753799
244	0x3adb4390	0.0016728509
245	0xbd889837	-0.06669658
246	0xbd200e07	-0.039075878
247	0xbd2146ff	-0.039374348
248	0x3c6a4cb5	0.014300515
249	0xbd05587c	-0.03255509
250	0x3daf8748	0.08570725
251	0x3c8bb99d	0.01705628
252	0x3c17e5dc	0.009271111
253	0xbaf3a87f	-0.0018589644
254	0xbbc2ffe4	-0.0059509147
255	0x3d907c9e	0.07055019

encoder_conv1.bias f4 [64]
0	0x3c403b8f	0.01173295
1	0xbcc3d6e3	-0.023906177
2	0x3c406021	0.011741669
3	0x3d138620	0.036016583
4	0x3c058c15	0.008151074
5	0x3cab2b70	0.020894736
6	0x3a7df29d	0.0009687336
7	0xbc5af999	-0.013365173
8	0x3a018c80	0.00049418956
9	0x3cde63df	0.027147232
10	0x3b9fec75	0.004880483
11	0x3c8ee5ac	0.0174435
12	0xbabad8c7	-0.0014255279
13	0x3b8fc150	0.0043870583
14	0xbccf247c	-0.025285952
15	0xbb2751c9	-0.0025530925
16	0x3d2b27a3	0.041785847
17	0xbb8adeec	-0.004238
18	0x3c3db190	0.011577979
19	0x3c3bf35e	0.0114715975
20	0x3c80c61b	0.015719464
21	0xbc9493a6	-0.01813681
22	0xbcbfd5af	-0.023417322
23	0xbcc9ec10	-0.024648696
24	0x3aa9183c	0.0012900899
25	0x3ced7ffe	0.028991695
26	0xbc0a98d2	-0.008459287
27	0x3bd2c490	0.0064321235
28	0x3ceed1c2	0.029152755
29	0xbc342bd3	-0.010996777
30	0x3ca7bfdf	0.020477233
31	0xbc56ee4f	-0.013118341
32	0x3c9f66ef	0.019458262
33	0x3bf1a137	0.0073739546
34	0xbc8f503d	-0.017494315
35	0xbc4e7246	-0.012600487
36	0xbc85e207	-0.01634313
37	0xbd6370d7	-0.055527534
38	0x3bb544ef	0.005531899
39	0x3ba42200	0.005008936
40	0xbc5099f8	-0.0127320215
41	0x3bdeff83	0.0068053617
42	0xbd0865ac	-0.033300087
43	0xbd1140f1	-0.035462324
44	0x3d427e55	0.04748376
45	0x3cb2a928	0.021809176
46	0xbceac979	-0.028660523
47	0xbcbd09bb	-0.023075929
48	0xbcd60df6	-0.026129704
49	0x3d01d82c	0.0317003
50	0x3c3cfe03	0.0115351705
51	0x3c6869cc	0.01418538
52	0x3cca9a3d	0.02473175
53	0x3a339e06	0.00068518554
54	0x3baa40ce	0.0051957136
55	0xbbba0a7d	-0.00567752
56	0x3d157adc	0.03649412
57	0x3cd42f20	0.025901377
58	0xbba5bffb	-0.0050582862
59	0x3ba2207d	0.0049477206
60	0xbba57e4b	-0.0050504557
61	0x3c8e97fe	0.01740646
62	0x3c9601e5	0.01831145
63	0x3d20f2ae	0.039293937

encoder_conv2.weight f4 [64, 64, 3, 3]
0	0xbd5a97ff	-0.05336761
1	0x3d81ea00	0.0634346
2	0x3c8c7250	0.017144352
3	0xbd58514a	-0.0528119
4	0x3c8f651a	0.017504264
5	0xbd85b453	-0.06528535
6	0xbd5dfa49	-0.05419377
7	0x3d3dabce	0.046306424
8	0xbd4a7c15	-0.04943474
9	0x3cf407f0	0.029788941
10	0xbce7c6f7	-0.028293116
11	0x3c9e1124	0.019295283
12	0x3c3c4b04	0.0114924945
13	0xbd540bd4	-0.051769093
14	0x3bebff3e	0.007202058
15	0xbac7b8cd	-0.001523757
16	0xbb5332f5	-0.0032226418
17	0xbc3dac89	-0.01157678
18	0xbd6f5300	-0.058428764
19	0xbd919cec	-0.071100086
20	0x3beaac17	0.007161628
21	0xbaed3b27	-0.0018099294
22	0xbc87df93	-0.0165861
23	0xbd0f456e	-0.034978323
24	0x3d1fee9d	0.03904592
25	0x3ba31cdc	0.0049778055
26	0xbca8bcd3	-0.02059785
27	0x3d08ec3b	0.033428412
28	0x3b396e8b	0.0028294649
29	0x3d54dfdd	0.051971305
30	0xbd772494	-0.060337618
31	0x3d257876	0.040398084
32	0xbcf43953	-0.02981249
33	0xbd800f49	-0.062529154
34	0xbd590446	-0.05298259
35	0x3d10ea46	0.03537967
36	0xbb98e091	-0.0046654423
37	0x3d5a7f33	0.053343963
38	0xbd584788	-0.052802593
39	0x3ca80dee	0.020514455
40	0xbcaac2b8	-0.020844802
41	0xbc937e60	-0.018004596
42	0x3d279229	0.040910874
43	0x3c5c2c14	0.013438243
44	0x3d6f8b94	0.05848272
45	0xbcd3c6d5	-0.025851646
46	0x3ccc9792	0.024974618
47	0xbd33bff2	-0.043884225
48	0x3ca11feb	0.01966854
49	0xbc0ecdcd	-0.008716059
50	0xbc976352	-0.018479977
51	0xbd96c81f	-0.07362389
52	0x3d7497e3	0.059715163
53	0xbd4de086	-0.05026295
54	0x3d089fdf	0.03335559
55	0xbc076d3d	-0.0082657905
56	0x3d3ab6cb	0.04558448
57	0x3c7d82bb	0.015473063
58	0x3cce77a8	0.02520354
59	0xbb8d5a14	-0.0043137167
60	0xbd2294e6	-0.039692782
61	0xbcb0aa5f	-0.021565614
62	0xbae9da48	-0.0017841542
63	0xbd8a41bd	-0.0675082
64	0xbcc1914f	-0.023628859
65	0xbcf2978d	-0.02961328
66	0xbd1932a6	-0.037401818
67	0xbcdad3df	-0.026712356
68	0x3ba2d3a5	0.0049690777
69	0xbd2e750d	-0.042592097
70	0xbc86e1fc	-0.01646518
71	0x3ceee5d6	0.029162329
72	0xbc53d69d	-0.012929586
73	0xbc5b693e	-0.013391791
74	0xbd21e5ec	-0.03952591
75	0x3c44bf36	0.012008479
76	0x3d1f8402	0.03894425
77	0x3bb19859	0.0054197726
78	0x3ccee75b	0.025256803
79	0x3d560d6b	0.05225889
80	0x3d419625	0.04726233
81	0xbd06472f	-0.03278273
82	0x3d1d5f70	0.038421094
83	0x3d2c079f	0.041999456
84	0x3b5627b1	0.0032677467
85	0xbd38f104	-0.045151725
86	0xbd61c48f	-0.055119094
87	0xbd82dc19	-0.063896365
88	0xbd4fc33b	-0.050723296
89	0x3d946f2d	0.072477676
90	0xbd81261c	-0.06306097
91	0xbcdaf491	-0.026727946
92	0x3d4f14e2	0.050557025
93	0x3ce1232a	0.027482588
94	0xbc6745fc	-0.014115807
95	0x3ccd4393	0.025056636
96	0x3d0c9d81	0.034329895
97	0x3d943277	0.07236188
98	0xbd2927a4	-0.04129757
99	0xbd4e3094	-0.050339296
100	0xbd22db31	-0.03975982
101	0x3d45cf18	0.048293203
102	0xbd486e89	-0.04893354
103	0x3d85f1e5	0.06540278
104	0xbd834445	-0.06409506
105	0x3d41f621	0.047353867
106	0x3be26d94	0.0069100354
107	0xbb9fe0c3	-0.0048790886
108	0x3c175978	0.00923764
109	0xbca6a96b	-0.020344457
110	0x3cc02d27	0.02345903
111	0xbd569128	-0.052384526
112	0xbd83f203	-0.064426444
113	0x3d0dd7b3	0.034629535
114	0x3ceeadeb	0.029135665
115	0xbcabb6c8	-0.02096118
116	0xbd5521a9	-0.052034054
117	0xbd568d36	-0.052380763
118	0x3c23472e	0.009965701
119	0xbd411c81	-0.047146324
120	0xbd041b10	-0.03225237
121	0xbcec908a	-0.028877515
122	0xbcf5f419	-0.030023621
123	0x3d4febee	0.05076211
124	0xbbbf5108	-0.005838517
125	0x3d60264e	0.05472403
126	0xbd61a9ab	-0.05509345
127	0xbd5d2577	-0.053990807
128	0x3d7e5044	0.062088266
129	0x3c89a4ad	0.016802156
130	0x3c10fdd2	0.008849578
131	0x3d0ecaca	0.034861363
132	0x3d60ecb1	0.054913227
133	0xbd0dab5d	-0.034587253
134	0xbbdbbd77	-0.0067059356
135	0x3c26d4dd	0.0101825865
136	0xbcf90eb8	-0.030402526
137	0xbd05175a	-0.032492973
138	0xbd277e81	-0.040892128
139	0x3d82b677	0.06382459
140	0x3d8ec6de	0.06971525
141	0x3d8d10c9	0.06887967
142	0xbd681220	-0.05665791
143	0xbbec86e4	-0.0072182287
144	0xbd3415fe	-0.043966286
145	0xbd400ee6	-0.04688921
146	0x3d87eff3	0.066375636
147	0x3c7ef99c	0.015562441
148	0xbd86a0bb	-0.06573626
149	0x3d8502f8	0.06494707
150	0xbc03c12d	-0.008041662
151	0xbc1beabc	-0.009516414
152	0x3d4e7a40	0.050409555
153	0x3d2197b3	0.039451312
154	0x3d459505	0.04823782
155	0x3d289cfe	0.041165344
156	0xbc93e6fa	-0.018054474
157	0x3d89c42a	0.067268685
158	0xbd8ab847	-0.06773429
159	0x3d6f9936	0.058495723
160	0x3d92f4ca	0.07175596
161	0x3d132994	0.035928324
162	0xbcfc8e52	-0.030829582
163	0xbcde440f	-0.027132062
164	0x3d246a48	0.04014042
165	0xbd2d63b9	-0.04233143
166	0x3cd764d7	0.026293201
167	0x3c704380	0.014664531
168	0x3d223549	0.039601598
169	0xbb0bba19	-0.002132064
170	0x3d698189	0.0570083
171	0xbd5e9642	-0.054342516
172	0xbd4efa83	-0.050531875
173	0xbd7bd7b6	-0.061485015
174	0x3d3b5337	0.045733657
175	0xbd1ef956	-0.038812004
176	0xbd5b61dc	-0.053560123
177	0xbd2005cb	-0.039068025
178	0xbc82fdc5	-0.015990147
179	0xbd5724a9	-0.052525196
180	0x3d811501	0.06302834
181	0xbb60f6c9	-0.0034326783
182	0x3b24ebf2	0.0025165048
183	0x3d803453	0.0625998
184	0xbd0783a4	-0.033084527
185	0xbd09046c	-0.033451483
186	0xbc3dd451	-0.011586265
187	0xbcf78396	-0.030214112
188	0xbb95c832	-0.0045709843
189	0x3c0f78e9	0.008756855
190	0xbbcfb203	-0.0063383593
191	0x3d6ca7b7	0.057777133
192	0xbd5cf12c	-0.053940937
193	0x3ca67da2	0.020323578
194	0x3c2ddab9	0.01061123
195	0x3c99a7c8	0.018756762
196	0x3ce6b71a	0.028163482
197	0xbd0033a6	-0.031299256
198	0x3c54d12c	0.012989324
199	0x3b6c6ab1	0.0036074335
200	0xbd21cd74	-0.039502576
201	0x3d2b5a6f	0.04183429
202	0x3cd94513	0.026522195
203	0xbb1a2e01	-0.0023525956
204	0xbd0f6055	-0.03500398
205	0x3caf42ed	0.021394217
206	0xbd31b721	-0.043387536
207	0x3c1d4fb9	0.009601527
208	0x3cfe7e1a	0.03106599
209	0xbb60bd6e	-0.0034292596
210	0x3d857812	0.06517042
211	0xbd12bdf9	-0.035825703
212	0x3d3d8c67	0.046276476
213	0xbd3fed8f	-0.046857413
214	0x3d947ed4	0.07250753
215	0x3d812246	0.06305365
216	0xbd57b714	-0.05266483
217	0xbca7fd91	-0.020506652
218	0xbc804f56	-0.01566283
219	0xbd6f1ca2	-0.058376916
220	0x3d3671d5	0.044542152
221	0xbcab2bef	-0.020894973
222	0x3d545644	0.05184008
223	0xbd426709	-0.047461543
224	0xbce3c641	-0.027804496
225	0x3c3f176f	0.011663302
226	0xbd0df90d	-0.03466134
227	0x3d096674	0.033544973
228	0xbd4e4dda	-0.050367214
229	0xbc85970d	-0.016307378
230	0xbc978ff6	-0.018501263
231	0xbd4346ad	-0.047674824
232	0xbd5b59ce	-0.05355244
233	0xbc0c792f	-0.008573814
234	0x3d98f609	0.074688025
235	0x3d3c5bbb	0.04598592
236	0x3ceeba4f	0.029141573
237	0xbd878e50	-0.06618941
238	0x3c1b03d5	0.009461363
239	0x3d8409f4	0.06447211
240	0x3b61f67b	0.003447919
241	0x3d808b4a	0.06276567
242	0xbd53166d	-0.05153506
243	0x3c9b0386	0.018922579
244	0x3d9265c6	0.07148318
245	0x3d3729de	0.044717662
246	0x3d3c409e	0.04596006
247	0x3d6c5402	0.057697304
248	0xbd8b3e20	-0.06798959
249	0xbd3c3d84	-0.045957103
250	0xbd09ee74	-0.033674672
251	0x3d67a522	0.056553967
252	0x3c7dfd72	0.015502321
253	0x3d0e6607	0.03476527
254	0xbce8af3c	-0.02840387
255	0x3b8ddb9c	0.004329158

encoder_conv2.bias f4 [64]
0	0xbd2c1026	-0.042007588
1	0xbd184eca	-0.037184514
2	0x3b530984	0.0032201717
3	0x3cdb9b30	0.026807398
4	0xbb96576d	-0.0045880587
5	0x3b2373b7	0.0024940798
6	0xbc0250be	-0.007953821
7	0x39aebbee	0.00033327885
8	0xbbba5fd4	-0.005687693
9	0x3b1d5ce5	0.0024011668
10	0x3bfd5a24	0.007731693
11	0xbc363844	-0.011121813
12	0xbc941629	-0.018076973
13	0xbc010f75	-0.00787722
14	0x3cad583f	0.021160243
15	0x3bc6ff30	0.006072901
16	0xbd00232f	-0.031283554
17	0x3cc6de45	0.024275908
18	0x3c609ff1	0.013710008
19	0xbc1b3ce8	-0.00947497
20	0xbc234ea7	-0.009967483
21	0x3c5cf625	0.01348642
22	0x3cef4467	0.029207421
23	0xbb8b1104	-0.004243972
24	0xbcd76894	-0.026294984
25	0xba8b444c	-0.0010625212
26	0x3cda467e	0.026644941
27	0x3d02600c	0.03182988
28	0x3ad76ba0	0.0016435273
29	0xbc4873bd	-0.012234625
30	0x3cec78da	0.02886622
31	0x3d0f843b	0.035038214
32	0x3b3f7115	0.002921169
33	0xbc7065fd	-0.014672753
34	0x3c9ed3de	0.019388136
35	0xbd1371a1	-0.035997037
36	0xbc0cf9f4	-0.008604515
37	0xbbc11ccd	-0.005893326
38	0x3b9a891d	0.004716052
39	0xbd144355	-0.036197025
40	0x3c1421eb	0.00904129
41	0xbc31d106	-0.010853058
42	0xbca7fbdf	-0.020505844
43	0x3a26b96c	0.00063600275
44	0x3d09f48f	0.033680495
45	0xbca6a83a	-0.020343889
46	0xbd161ddf	-0.03664958
47	0x388e1901	6.775745e-05
48	0x3c3f1ea6	0.011665022
49	0xbc21daa5	-0.009878789
50	0xbcbf3271	-0.023339482
51	0x3c47ae54	0.012187559
52	0x3c5f8d8d	0.013644588
53	0xbd16ef59	-0.036849353
54	0x3c23adf2	0.009990202
55	0x3cc9c4e6	0.024630021
56	0xbc9c361e	-0.019068774
57	0xbd020ec3	-0.03175236
58	0xbcb3ccb6	-0.0219482
59	0x3cbd73ab	0.023126444
60	0xbc2a03da	-0.010376895
61	0xbc279661	-0.010228724
62	0xbd01ceb7	-0.03169128
63	0xbcacdb40	-0.02110064

attention.convolution.weight f4 [1, 64, 1, 1]
0	0x3e87d1b0	0.26527166
1	0x3e9faa5b	0.31184658
2	0xbe918cbc	-0.28427684
3	0xbdf76cff	-0.12081336
4	0x3e4f46f6	0.20241913
5	0x3e0e6e14	0.13909179
6	0x3c368c22	0.011141809
7	0x3e6a4116	0.22876391
8	0x3c9fc47f	0.019502876
9	0xbd3b4945	-0.045724172
10	0xbe67b1df	-0.22626446
11	0x3e0c03e3	0.13673358
12	0x3e8258a7	0.2545826
13	0x3d17a19a	0.03701935
14	0xbe0bfb1b	-0.13670008
15	0x3e7ccc3d	0.24687286
16	0x3ea0dbb7	0.3141763
17	0xbe2eee15	-0.17083009
18	0xbe95914a	-0.2921241
19	0x3e3671cc	0.17816848
20	0x3e4005f2	0.18752268
21	0xbea63370	-0.3246112
22	0xbea9093a	-0.33014852
23	0x3bcbcf4d	0.0062197805
24	0x3e97745c	0.29580963
25	0xbd675e90	-0.056486666
26	0xbe1eaf69	-0.15496601
27	0xbeb080a5	-0.34473148
28	0xbde91c47	-0.113823466
29	0x3d8e4fb8	0.06948799
30	0xbe1c6b5a	-0.15275326
31	0xbea6558c	-0.32487142
32	0x3db78a15	0.08961884
33	0x3e4cc7d8	0.1999811
34	0xbd0f14e2	-0.034932025
35	0x3e94a02a	0.29028445
36	0xbc98daac	-0.018658958
37	0x3e110b51	0.14164473
38	0x3d0e4b86	0.034739994
39	0x3e9de7b9	0.30840853
40	0xbd347bec	-0.044063494
41	0x3d3b319b	0.045701604
42	0x3e8d7ef1	0.2763591
43	0xbd9a8f0d	-0.07546816
44	0xbe086d16	-0.13322863
45	0x3e791f73	0.24328403
46	0x3ea48831	0.32135156
47	0x3cff6168	0.031174377
48	0xbd1868a8	-0.037209183
49	0x3e12445a	0.14283887
50	0x3e97166a	0.29509288
51	0xbe6eac8b	-0.23308007
52	0xbdb7c715	-0.08973519
53	0x3e77e0a6	0.2420679
54	0xbe9c0adc	-0.30477035
55	0xbdd17185	-0.1022673
56	0x3d838a09	0.064228125
57	0x3e1e2534	0.1544388
58	0x3e885b93	0.26632366
59	0xbde0430a	-0.10950287
60	0x3e53fec1	0.2070265
61	0x3e7105ab	0.23537318
62	0x3e7dbc26	0.24778804
63	0x3e07a7ea	0.13247648

decoder_conv1.weight f4 [64, 64, 3, 3]
0	0x3c8e31be	0.017357703
1	0xbd2a6e0c	-0.041608855
2	0xbd5a18be	-0.053246252
3	0x3d4009ba	0.046884276
4	0xbca7a6af	-0.020465223
5	0xbd26f0f6	-0.040757142
6	0xbd1bdf51	-0.038054768
7	0x3d7fcf34	0.062453464
8	0xbd239fcb	-0.039947312
9	0x3d9677d5	0.07347075
10	0xbc732874	-0.014841188
11	0x3c5f2f10	0.01362206
12	0x3c9a49ff	0.018834112
13	0x3d654eba	0.055983283
14	0xbcf64ac7	-0.030064953
15	0x3d288dd6	0.04115089
16	0xbd482b53	-0.048869442
17	0xbd35cf27	-0.04438701
18	0xbc3d4079	-0.011551016
19	0xbd61d211	-0.055131976
20	0x3d33f3b7	0.043933596
21	0xbcd17075	-0.025566319
22	0x3d54a589	0.05191568
23	0x3d5211ed	0.051286627
24	0x3d8adfbd	0.06780956
25	0xbd45363b	-0.04814742
26	0x3d0437d7	0.032279816
27	0xbc4ad062	-0.012378784
28	0x3d47a4e3	0.048741233
29	0xbd6af3c9	-0.057361398
30	0xbd76dadb	-0.06026731
31	0x3d357f73	0.044311
32	0x3d3e014f	0.046387967
33	0xbc27be00	-0.010238171
34	0x3d89610b	0.067079626
35	0x3d36c990	0.04462582
36	0xbd26b5bb	-0.040700655
37	0xbd4eac3c	-0.050457224
38	0xbd73f607	-0.0595608
39	0x3d604bf7	0.054759946
40	0x3c4c1a03	0.012457374
41	0xbd23c349	-0.03998116
42	0xbd253af8	-0.04033944
43	0xbd27e00f	-0.040985163
44	0xbd3d9ca0	-0.046291947
45	0xbc91bfd9	-0.017791675
46	0x3d8ac7ed	0.06776414
47	0x3d7deb6d	0.061992098
48	0xbd3a2245	-0.04544284
49	0xbd72cee2	-0.05927933
50	0x3cd6995c	0.026196174
51	0x3d2ec38d	0.04266696
52	0xbbc6c807	-0.0060663256
53	0xbd36608f	-0.04452568
54	0x3d5b3732	0.053519435
55	0x3c86fcfb	0.016478052
56	0xbd89156b	-0.06693538
57	0xbd21e05d	-0.03952061
58	0xbc87d8fc	-0.016582958
59	0xbd7feaaf	-0.06247967
60	0x3d4c4f0f	0.049880084
61	0xbd4b3764	-0.04961337
62	0xbd3ca43a	-0.046055056
63	0x3d6db6bd	0.0580356
64	0xbd828cd0	-0.06374514
65	0xbb8ca08e	-0.0042916005
66	0x3c8b9fb3	0.017043924
67	0xbd72309f	-0.0591284
68	0x3d563c27	0.05230346
69	0x3c28653d	0.010278043
70	0xbd7dec80	-0.061993122
71	0xbcc9cc4d	-0.024633551
72	0xbcec3cce	-0.028837588
73	0x3d39159d	0.045186628
74	0x3d8f9156	0.070101425
75	0xbd81d840	-0.063400745
76	0xbb5ef412	-0.003401999
77	0xbcf9167c	-0.03040623
78	0x3d878ad7	0.066182785
79	0x3c9fb44c	0.019495152
80	0xbd4f60b9	-0.05062935
81	0xbd73ac85	-0.0594907
82	0xbd49eb3b	-0.0492966
83	0x3cfe291f	0.031025467
84	0x3d37b0fd	0.044846524
85	0x3d85e4f0	0.06537807
86	0xbd4ece98	-0.050489992
87	0x3d6fd6fe	0.058554642
88	0xbcb66998	-0.022267148
89	0xbcb5cf8b	-0.02219369
90	0x3cc04c23	0.023473805
91	0x3d8105f2	0.06299962
92	0xbcdfd6d7	-0.027324123
93	0xb80b1af8	-3.31653e-05
94	0x3d1f7ac5	0.03893544
95	0x3c7d1d58	0.015448891
96	0xbcc16d6c	-0.023611747
97	0x3d621ac3	0.055201303
98	0xbd70f886	-0.05883076
99	0xbcdea576	-0.027178507
100	0xbbce7d90	-0.0063015893
101	0x3ca20f8f	0.01978281
102	0xbc8c2ada	-0.017110277
103	0xbd0de197	-0.034638967
104	0xbb292849	-0.0025811365
105	0x3a9f5d6a	0.0012158577
106	0xbcebd366	-0.028787326
107	0xba73fbb4	-0.0009307221
108	0x3ca71ec8	0.02040042
109	0x3cde1c9d	0.027113253
110	0xbcb68faf	-0.02228531
111	0xbd7aea64	-0.06125869
112	0x3d8dfdd6	0.06933181
113	0x3d93d024	0.07217434
114	0xbd3540b0	-0.044251144
115	0x3c981653	0.018565333
116	0x3d6c994e	0.05776339
117	0xbd6ed4e3	-0.058308493
118	0xbd7569db	-0.059915405
119	0x3b840af8	0.004029628
120	0xbd5fe1f8	-0.05465886
121	0x3cd4465e	0.02591246
122	0x3d433edb	0.047667366
123	0x3d2a5991	0.041589323
124	0x3c5ce50e	0.013482345
125	0xbd09658f	-0.03354412
126	0x3cb0988f	0.02155712
127	0x3cbfe479	0.023424374
128	0x3c6917d6	0.014226874
129	0xbd0b568b	-0.03401808
130	0xbd19b818	-0.03752908
131	0xbd8aac55	-0.06771151
132	0x3c5824af	0.01319234
133	0xbcca7cf3	-0.024717784
134	0xbd0c47dd	-0.03424822
135	0x3d0d4aed	0.034495283
136	0xbd818d4b	-0.063257776
137	0x3c2d77e3	0.010587665
138	0x3d255355	0.040362675
139	0x3a0046d4	0.0004893367
140	0xbcbb55fb	-0.022868147
141	0xbd7b0da6	-0.061292313
142	0xbc20c594	-0.009812731
143	0xbd6bc2be	-0.057558767
144	0xbd5cfe5d	-0.053953517
145	0xbd856a6f	-0.06514441
146	0x3bee76fe	0.0072773686
147	0x3c099394	0.008397002
148	0xbc54cc5b	-0.012988175
149	0x3b970dd6	0.0046098037
150	0x3d423728	0.047415882
151	0x3d81cecf	0.06338274
152	0xbbf8dda2	-0.00759478
153	0xbc855014	-0.016273536
154	0x3d4fb512	0.05070979
155	0x3b5159c7	0.003194438
156	0xbd6f99e6	-0.05849638
157	0x3d1b8ab8	0.03797409
158	0xbcdf50b7	-0.027260168
159	0xbbffba3f	-0.0078041847
160	0xbd254c3d	-0.04035591
161	0xbcaabdf0	-0.020842522
162	0x3d3a1f5b	0.04544006
163	0xbc38f6e7	-0.011289335
164	0x3d3b7554	0.04576619
165	0x3cd9cc00	0.026586533
166	0x3d5ad540	0.053426027
167	0xbd19402b	-0.03741471
168	0xbd0d51cf	-0.034501847
169	0x3c4ba916	0.01243045
170	0x3b91e795	0.0044526556
171	0x3d670f5e	0.05641114
172	0x3c46c883	0.012132767
173	0x3d8aa5c7	0.06769901
174	0xbcfc009e	-0.030762013
175	0x3b81f915	0.0039664605
176	0xbcc8b1e8	-0.024498895
177	0x3d9183d9	0.07105226
178	0x3d8b4c8f	0.06801712
179	0xbc11dcf1	-0.008902774
180	0xbbecf426	-0.007231253
181	0xbc76365b	-0.015027608
182	0x3d787f32	0.060668178
183	0xbb3af628	-0.0028528068
184	0xbd75d88b	-0.060020965
185	0xbd1aff7a	-0.037841298
186	0x3d2091eb	0.03920166
187	0x3ce3c53d	0.027804011
188	0x3d5a7cc9	0.05334166
189	0xbc7c1b2a	-0.015387336
190	0x3d81c9a8	0.06337291
191	0x3d61ef50	0.055159867
192	0x3d230b9c	0.039805993
193	0xbd7563b1	-0.059909526
194	0xbc9e2635	-0.019305328
195	0x3d99c620	0.075084925
196	0xb9eeff7e	-0.00045585254
197	0x3d7e6846	0.06211116
198	0xbd5b64a5	-0.05356278
199	0xbd04e373	-0.032443475
200	0xbc938baa	-0.018010933
201	0xbd28d877	-0.041222062
202	0x3d6981f1	0.057008687
203	0x3d3fcdc4	0.046827093
204	0xbd244273	-0.040102433
205	0xbc2bba17	-0.010481379
206	0x3d7f1069	0.06227151
207	0x3d030806	0.031990074
208	0x3d68dfdc	0.056854114
209	0xbd4f6b8a	-0.050639667
210	0x3c8d591d	0.017254407
211	0x3d04ee9a	0.03245411
212	0x3d83f9a2	0.06444098
213	0x3d80b37d	0.06284235
214	0xbd3c5464	-0.04597892
215	0xbd516093	-0.05111749
216	0xbc065824	-0.008199725
217	0x3bd8ff31	0.006622218
218	0x3d8bd545	0.06827787
219	0x3d2e1241	0.042497877
220	0x3d80b55e	0.06284593
221	0x3d55c118	0.0521861
222	0xbd908b52	-0.07057823
223	0x3cf6768e	0.030085828
224	0xbbb73c6f	-0.005591921
225	0x3ce9f542	0.02855933
226	0xbd34783e	-0.044059984
227	0xbcc4beb2	-0.024016712
228	0xbd6f7551	-0.05846149
229	0x3d8a522f	0.067539565
230	0xbd676d55	-0.05650075
231	0x3d5f48fb	0.05451296
232	0xbcc4294d	-0.023945475
233	0xbc958387	-0.018251194
234	0xbd8e7d39	-0.06957478
235	0xbd688713	-0.05676944
236	0xbd631c38	-0.055446833
237	0xbce77f10	-0.02825883
238	0x3cb057a9	0.021526175
239	0x3c8f36b5	0.017482141
240	0xbd0f7724	-0.03502573
241	0x3c90e49b	0.017687133
242	0xbb67cff9	-0.0035371764
243	0xbd3a9daf	-0.045560535
244	0xbbdd5641	-0.006754667
245	0x3d16328d	0.036669303
246	0x3a884326	0.0010395988
247	0x3d699308	0.057024986
248	0xbceaa0c2	-0.028641108
249	0xbd60ba54	-0.054865196
250	0xbd2bbd22	-0.041928418
251	0x3d7b2fb1	0.06132478
252	0x3d31d450	0.043415368
253	0xbd63b5b4	-0.055593207
254	0x3d6282bd	0.055300463
255	0xbcc90105	-0.024536619

decoder_conv1.bias f4 [64]
0	0xbbd9c898	-0.006646227
1	0xbbe526be	-0.006993144
2	0x3bca9957	0.0061828303
3	0x3bca4622	0.0061729113
4	0xbc142f53	-0.009044486
5	0x3bd598f0	0.0065184757
6	0x3b8c6639	0.004284647
7	0x3bb14735	0.0054101
8	0xbbdcfaf5	-0.0067437836
9	0xbc21bd65	-0.009871815
10	0xbbd47342	-0.0064834664
11	0xbbdad03b	-0.006677655
12	0xbbc41d41	-0.0059849326
13	0xbba315d6	-0.0049769683
14	0xbc083539	-0.0083134705
15	0xbb9f4856	-0.004860918
16	0xbc030447	-0.007996625
17	0x3bf1cf0f	0.0073794196
18	0x3bdf1e3c	0.006809024
19	0x3bd4fabe	0.0064996174
20	0xba00b1a9	-0.0004909286
21	0xbbf72fbd	-0.0075435326
22	0xbbf60df6	-0.0075089885
23	0xbbe085c3	-0.006851883
24	0x3b9b7d83	0.004745187
25	0xbbf5b93d	-0.0074988888
26	0xbb8e48c1	-0.004342169
27	0x3b88eb3b	0.0041784323
28	0xbbe7ff5d	-0.007080002
29	0xbc8ed498	-0.017435357
30	0xbbe8bddb	-0.0071027107
31	0x3bed5ffd	0.0072441087
32	0x3bded9dc	0.006800873
33	0x3be41715	0.0069607594
34	0xbbe88d50	-0.007096924
35	0xbbea056a	-0.0071417587
36	0x3bda45b9	0.0066611436
37	0xbbec1ca5	-0.007205563
38	0x3a828b02	0.000995964
39	0x3b0ba46a	0.0021307715
40	0xbb98e8a8	-0.0046664067
41	0xbbf90adc	-0.0076001715
42	0x3bc00e25	0.005861061
43	0xbaf22bdc	-0.0018476206
44	0x3bad3857	0.0052862572
45	0xbb2c0c42	-0.0026252423
46	0x3bdf8984	0.006821813
47	0x3bea3f56	0.0071486635
48	0x3a15ea30	0.00057187956
49	0x3bb7399f	0.0055915858
50	0x3bcabaef	0.006186835
51	0xbb945649	-0.0045268876
52	0x3bdd5583	0.0067545786
53	0x3b23cfde	0.0024995725
54	0x3c04d2b1	0.008106873
55	0xbbe5eb40	-0.0070165694
56	0x3bc9cbef	0.006158344
57	0x3bcedfe4	0.006313311
58	0x3b94ddaa	0.004543026
59	0x3bd26b6a	0.006421496
60	0xbb4fec0e	-0.0031726393
61	0x3b155902	0.0022788648
62	0x3b853cc9	0.004066084
63	0x3be8dafd	0.0071061836

decoder_conv2.weight f4 [1, 64, 3, 3]
0	0xbd6918e0	-0.05690849
1	0xbce8ef37	-0.028434379
2	0xbda34f73	-0.07974138
3	0xbd0db83d	-0.03459953
4	0xbd6b8533	-0.057500076
5	0xbd8ec6f9	-0.06971545
6	0x3dd34032	0.10314979
7	0xbd881e5c	-0.066464156
8	0xbb0ad5ff	-0.002118468
9	0xbc1081d2	-0.008820014
10	0xbbcf9aca	-0.006335591
11	0xbda5eed4	-0.081021935
12	0xbd6608c3	-0.0561607
13	0x3d59f86c	0.05321543
14	0xbb4f5506	-0.0031636371
15	0x3d4ad81f	0.049522515
16	0xbc2f9569	-0.0107167745
17	0x3ce3fbab	0.027829966
18	0xbd7f08c9	-0.062264238
19	0x3d5070f1	0.05088896
20	0x3da29917	0.07939356
21	0x3c51575c	0.012777176
22	0x3d088af7	0.033335652
23	0x3c80cf43	0.01572383
24	0xbce856d2	-0.028361712
25	0xbd20f9d5	-0.03930076
26	0x3d5016ca	0.050802983
27	0x3d2e42a5	0.042544026
28	0x3da035b6	0.078227445
29	0x3d573dc1	0.052549127
30	0x3c8e64c1	0.017382028
31	0x3b2e663c	0.002661123
32	0x3da7aa93	0.08186831
33	0xbc6d3ff0	-0.014480576
34	0xbda13215	-0.078708805
35	0xbdd7cc40	-0.105370045
36	0x3ca98192	0.020691667
37	0x3d610268	0.054933935
38	0xbc9d0a0a	-0.019169826
39	0xbdae0a56	-0.08498065
40	0x3baaec6d	0.0052161724
41	0x3da93db8	0.08263725
42	0xbcf1258e	-0.029436853
43	0xbcd66976	-0.026173335
44	0xbd4601e9	-0.048341665
45	0x3d437e76	0.047728024
46	0x3d308814	0.043098524
47	0x3da71b40	0.081594944
48	0xba4fea1e	-0.00079313095
49	0x3daf581d	0.08561728
50	0x3d7f48c2	0.062325247
51	0xbd8939d2	-0.067004815
52	0xbd35c6b7	-0.044378962
53	0x3cdf2685	0.027240047
54	0x3a4ad099	0.0007736772
55	0xbdb8038b	-0.08985051
56	0x3dc57b65	0.09642676
57	0xbb6ea3e2	-0.00364136
58	0xbdadbc2b	-0.08483156
59	0x3ca58b7d	0.020208115
60	0x39693d79	0.00022243512
61	0x3d88b098	0.066743076
62	0xbc91e3a7	-0.017808748
63	0x3d74a981	0.059731964
64	0xbd676ce0	-0.056500316
65	0x3c0ae8dd	0.0084783705
66	0x3c885717	0.01664309
67	0xbd272690	-0.04080826
68	0xbbef451f	-0.007301941
69	0xbcb0df2d	-0.021590794
70	0x3d1a7474	0.037708715
71	0x3cc8f69f	0.02453166
72	0xbcee26b6	-0.029071193
73	0x3bbaf4f1	0.005705469
74	0x3d9ea3c9	0.07746083
75	0xbdaf254f	-0.08552038
76	0x3c5f03a0	0.013611704
77	0xbdb1bf67	-0.08679085
78	0xbdb7d5cb	-0.08976325
79	0x3b8e6d86	0.0043465523
80	0xbc34f9c1	-0.011045874
81	0xbd999a90	-0.075001836
82	0xbd24bbfc	-0.04021834
83	0xbdaeb586	-0.085307166
84	0xbbfb4fe2	-0.007669435
85	0xbd77fa00	-0.060541153
86	0x3d440d5b	0.0478643
87	0x3db24286	0.087040946
88	0x3d921be4	0.07134226
89	0x3d6b63a3	0.057468068
90	0xbd774db8	-0.060376853
91	0xbd370979	-0.04468677
92	0x3db8e9d3	0.090289734
93	0x3bbcfa29	0.005767126
94	0xbd3a60e1	-0.045502547
95	0xbdae0f52	-0.08499016
96	0xbd82bb32	-0.06383361
97	0x3d4eb1b2	0.050462432
98	0xbdb34d09	-0.08754928
99	0xbd6fae42	-0.058515795
100	0xbd5c2f10	-0.05375582
101	0xbd040e38	-0.032240123
102	0x3a4c8f9a	0.0007803381
103	0xbc35f0aa	-0.011104742
104	0xbd8b3b40	-0.067984104
105	0x3ddc9591	0.10770715
106	0xbc95370d	-0.018214727
107	0x3d8212e1	0.06351257
108	0xbc8c63a8	-0.017137364
109	0x3d2389c0	0.03992629
110	0x3cca99c7	0.02473153
111	0x3da94d18	0.082666576
112	0xbd408036	-0.04699727
113	0xbd3614cd	-0.04445343
114	0xbdb20785	-0.086928405
115	0xbd92c2b7	-0.07166045
116	0x3d6e4156	0.058167778
117	0xbc869d64	-0.016432472
118	0xbab48be3	-0.00137746
119	0xbd76e2c5	-0.060274858
120	0xbd71a356	-0.05899366
121	0x3d7bdacd	0.06148796
122	0x3da85172	0.082186595
123	0x3c8719c7	0.016491784
124	0xbd129bbd	-0.035793055
125	0xbc888e47	-0.016669406
126	0xbd1d35fc	-0.03838156
127	0xbcd3cb32	-0.025853727
128	0xbbe39eb9	-0.0069464114
129	0xbd2f3c97	-0.042782392
130	0xbc631227	-0.013859308
131	0x3dc68029	0.09692413
132	0x3d13377f	0.035941597
133	0x3c084143	0.008316341
134	0xbd0b5647	-0.034017827
135	0xbd5f9f3c	-0.054595217
136	0x3aa555f1	0.0012614114
137	0x3c0da56a	0.008645395
138	0xbdb3d472	-0.08780755
139	0xbc90317f	-0.017601727
140	0x3d3bf632	0.045889087
141	0x3c18b380	0.00932014
142	0xbc261b8a	-0.010138402
143	0x3dcb7184	0.09933761
144	0xbd2c819e	-0.0421158
145	0x3d9f3ed7	0.077756576
146	0xbd80607f	-0.06268405
147	0xbd734b7a	-0.059398152
148	0x3cd6133d	0.02613222
149	0x3d0b68e9	0.034035597
150	0xbc6674cf	-0.014065935
151	0xbd928193	-0.071536206
152	0x3d7ff9c2	0.062494047
153	0xbb95733c	-0.004560856
154	0xbd0fbd25	-0.03509249
155	0xbce5ddff	-0.028059958
156	0x3cf60c60	0.030035198
157	0xbd3bed91	-0.045880858
158	0x3d7092ee	0.058733873
159	0x3c76aded	0.015056116
160	0x3d59b4f5	0.05315109
161	0x3b7ea0ce	0.0038853171
162	0xbd145a10	-0.036218703
163	0x3d9a881c	0.07545492
164	0x3d429236	0.04750272
165	0x3d885112	0.06656088
166	0x3d336cdc	0.04380499
167	0x3d6bd59c	0.05757676
168	0xbd479b62	-0.04873217
169	0xbdc50b41	-0.09621287
170	0x3db2142c	0.08695254
171	0x3d392bf0	0.045207918
172	0xbcd9d1de	-0.02658933
173	0x3daa51f1	0.0831641
174	0x3c4af33d	0.012387094
175	0xbdd52fb0	-0.10409486
176	0xbc31da93	-0.010855335
177	0x3d95f7b3	0.073226355
178	0x3cadf4cc	0.021234892
179	0xbdaa2b68	-0.0830906
180	0x3d739c1b	0.059475046
181	0xbdba2b06	-0.09090237
182	0x3ce88a6b	0.028386315
183	0xbcc42a99	-0.023946093
184	0x3d8624e9	0.06550009
185	0x3daa8224	0.083256036
186	0xbd88e509	-0.0668431
187	0x3bc2f06e	0.0059490716
188	0xbd8408cf	-0.064469926
189	0x3cb97fc3	0.02264393
190	0xbd64d561	-0.055867556
191	0x3d7d3a00	0.06182289
192	0xbca7c2ae	-0.020478573
193	0x3d918bec	0.07106766
194	0x3c2960ed	0.01033805
195	0xbcdcb71f	-0.026942788
196	0xbd18a78a	-0.037269153
197	0xbd0f7e6d	-0.03503268
198	0x3cda9952	0.026684437
199	0xbd99f828	-0.07518035
200	0xbd6e4721	-0.058173303
201	0x3d00d634	0.03145428
202	0xbd218128	-0.039429814
203	0x3d8d2090	0.068909764
204	0x3dd2f58f	0.10300743
205	0xbd85bef1	-0.0653056
206	0xbdb0b516	-0.086282894
207	0xbd878b77	-0.06618398
208	0x3da56d33	0.08077469
209	0xbdbf43fe	-0.0933914
210	0x3ba741b7	0.0051042694
211	0x3be62573	0.0070235073
212	0xbb385f77	-0.0028133073
213	0x3de21156	0.11038463
214	0xbd521ad2	-0.05129511
215	0xbc34bb5b	-0.011030997
216	0xbda91c67	-0.082573704
217	0x3db08063	0.08618238
218	0x3da9e60d	0.08295832
219	0xbc91b811	-0.017787965
220	0xbd18e87c	-0.03733109
221	0x3a0d69b1	0.00053944724
222	0x3cb884f6	0.022524338
223	0xbd771f87	-0.0603328
224	0xbc2aa30c	-0.01041485
225	0x3b8e0f98	0.004335355
226	0x3d1302a0	0.035891175
227	0xbd97bee6	-0.07409458
228	0x3c6f43df	0.014603584
229	0xbdb4b7d5	-0.08824126
230	0xbdc33648	-0.09531838
231	0xbd8914ae	-0.066933975
232	0xbb310b81	-0.0027014914
233	0xbdb910e0	-0.09036422
234	0xbd87203e	-0.065979466
235	0xbc937104	-0.017998226
236	0xbd4e94e5	-0.050434966
237	0xbd449923	-0.047997605
238	0xbaed68eb	-0.0018112933
239	0xbcb92476	-0.022600394
240	0x3d962b26	0.07332449
241	0x3d6cf105	0.05784704
242	0x3d8eca7e	0.06972216
243	0x3d359f5b	0.044341426
244	0x3c830229	0.015992241
245	0x3ce67e63	0.028136438
246	0xbd2bcd55	-0.041943867
247	0xbc78e2cb	-0.01519079
248	0x3d80ef70	0.06295669
249	0xbcd9b9de	-0.026577886
250	0xbbb2d0ee	-0.0054570353
251	0xbc1bfcaa	-0.009520689
252	0x3cec35a4	0.028834172
253	0xbdaf7bfa	-0.085685685
254	0xbd2b9685	-0.041891593
255	0xbd21d39d	-0.03950845
