best_vanillaunet_weights.pth (torch, 158130 bytes, 5 tensors)

encoder.0.weight f4 [64, 3, 3, 3]
0	0x3d8080b4	0.06274548
1	0x3c2b85e2	0.010468932
2	0xbd2cc918	-0.042183965
3	0x3dbc069d	0.09180949
4	0xbd4add5b	-0.049527507
5	0xbdbce550	-0.092234254
6	0x3da32b98	0.07967299
7	0x3d904605	0.07044605
8	0x3d9c0ccd	0.07619629
9	0x3d3f94b0	0.04677266
10	0xbd02a7dc	-0.031898364
11	0xbd1ee337	-0.038790908
12	0xbd9211af	-0.07132279
13	0x3a993bde	0.0011690815
14	0xbd5a2615	-0.053258974
15	0xbdbd4c2d	-0.09243045
16	0x3d2e3482	0.042530544
17	0xbd9caee7	-0.076505475
18	0x3d0aefbf	0.033920046
19	0xbd78de89	-0.0607591
20	0x3bc0ae3e	0.0058801463
21	0xbd123ec0	-0.035704374
22	0x3bb5b0c5	0.005544754
23	0x3c9a0fe3	0.018806404
24	0xbbb01c19	-0.0053744433
25	0xbcc982d5	-0.024598518
26	0x3ae86b64	0.00177322
27	0xbc12d702	-0.008962395
28	0xbd9cd9c3	-0.07658722
29	0xbd0b2250	-0.03396827
30	0xbd872e3c	-0.066006154
31	0xbdaa2170	-0.08307159
32	0xbcbbd09e	-0.022926625
33	0x3c20f492	0.009823935
34	0x3da39df5	0.07989112
35	0x3d192a5f	0.037393924
36	0xbd8537b0	-0.06504762
37	0x3cc38afc	0.023869984
38	0xbc96dd53	-0.018416082
39	0x3d488819	0.048957918
40	0xbd5d8cde	-0.05408942
41	0xbd788b4c	-0.06067972
42	0x3d2a7f67	0.041625407
43	0x3cf32cc7	0.029684437
44	0xbafec336	-0.001943684
45	0xbb84a341	-0.0040477817
46	0xbd7f6f29	-0.06236187
47	0xbdc437f9	-0.095809884
48	0x3c95d4be	0.01828992
49	0x3d84b387	0.064795546
50	0xbcfd8ad4	-0.030949987
51	0x3c835cb0	0.016035408
52	0xbc153e2e	-0.009109063
53	0xbda3e1c8	-0.08002049
54	0xb9abf58c	-0.00032798608
55	0xbd7035eb	-0.05864517
56	0x3d937707	0.07200437
57	0x3d55990f	0.05214792
58	0x3d7dc387	0.061954048
59	0x3d5f10a4	0.05445923
60	0xbaaf649f	-0.0013381428
61	0x3cab1cbc	0.020887725
62	0x3c100cdc	0.008792128
63	0xbd066834	-0.03281422
64	0x3da727f6	0.08161919
65	0xbcd29b86	-0.025708925
66	0xbdbae654	-0.09125963
67	0x3c0b9f3c	0.008521851
68	0xbd9ca465	-0.07648543
69	0x3d8235e3	0.06357934
70	0xbc164491	-0.009171621
71	0xbd6deb30	-0.05808562
72	0x3d045c61	0.032314662
73	0x3ad251b6	0.001604608
74	0xbb827658	-0.003981393
75	0xbd7b91ba	-0.061418273
76	0xbda078fd	-0.07835577
77	0xbdbcf240	-0.09225893
78	0xbcbbc46f	-0.022920815
79	0xbd71d76e	-0.05904334
80	0x3da347ea	0.07972701
81	0x3ca583c7	0.020204438
82	0xbc89188c	-0.016735338
83	0xbd126356	-0.035739265
84	0x3d97a76b	0.07404979
85	0x3cf55858	0.029949352
86	0xbdc95311	-0.09830297
87	0xbda9bb84	-0.08287719
88	0xbdd805c3	-0.10547974
89	0x3d9b5a3b	0.075855695
90	0xbd987c5f	-0.07445597
91	0x3d7a53a8	0.061114937
92	0x3d1b16da	0.03786359
93	0x3d424e56	0.04743799
94	0x3daae23c	0.08343932
95	0x3d6490c3	0.055802118
96	0x3d9a3ef5	0.07531539
97	0x3d8731e0	0.0660131
98	0xbcc593bc	-0.024118297
99	0xbd6fad07	-0.05851462
100	0xbbc78d2d	-0.0060898275
101	0x3d934039	0.07189984
102	0xbdd384f5	-0.10328094
103	0x3dabe9f1	0.0839423
104	0x3c9f2c31	0.019430252
105	0xbd112720	-0.035437703
106	0x3c2590e5	0.010105346
107	0xbd67cace	-0.056589894
108	0x3c0add51	0.0084756175
109	0x3c90878f	0.017642764
110	0xbd9003e8	-0.07031995
111	0xbd3cbb0a	-0.04607681
112	0xbcf38fab	-0.029731592
113	0x3d110bfe	0.035411827
114	0xbc81758b	-0.01580312
115	0xbd8b5646	-0.06803565
116	0x3da79ffd	0.08184812
117	0x3d8a172b	0.067427
118	0xbcc787aa	-0.024356682
119	0xbd8f51a3	-0.06997993
120	0x3dd2aa80	0.102864265
121	0x3d4377eb	0.047721785
122	0xbd8b568c	-0.06803617
123	0xbdb7d4da	-0.08976145
124	0x3d6a9671	0.05727238
125	0xbdb4002a	-0.08789094
126	0xbc9a9e4e	-0.018874314
127	0x3bf25f66	0.0073966263
128	0xbd306c89	-0.043072257
129	0x3dc0d47b	0.094155274
130	0xbcb5a7f1	-0.022174807
131	0xbc26325e	-0.010143844
132	0x3d9c4e7c	0.07632157
133	0xbc09f982	-0.008421304
134	0x3ca1c99f	0.01974946
135	0xbda8f367	-0.0824955
136	0x3a509b11	0.0007957677
137	0xbdca049b	-0.0986416
138	0x3c317432	0.010830926
139	0xbcc9401e	-0.024566706
140	0x3c0eb76b	0.008710722
141	0x3d239aa9	0.039942417
142	0xbc798da8	-0.015231527
143	0x3d9fa189	0.07794482
144	0xbdcf56ce	-0.101239786
145	0x3c86b1d2	0.016442213
146	0xbc509f91	-0.012733356
147	0x3ddcb79f	0.107772104
148	0xbd68849c	-0.05676709
149	0xbcc34776	-0.023837786
150	0x3ce6e378	0.028184637
151	0xbdaaf3e8	-0.08347303
152	0x3d688ba3	0.056773793
153	0x3d2ef60a	0.04271511
154	0x3d6df613	0.058096003
155	0x3d358086	0.044312023
156	0x3d571f9a	0.052520372
157	0x3cbbaad8	0.022908613
158	0xbcb7dc03	-0.022443777
159	0xbdbc79ce	-0.0920292
160	0x3c1f86b9	0.00973671
161	0xbc63e4e0	-0.0139095485
162	0xbdd11816	-0.10209672
163	0x3d0cabac	0.034343407
164	0xbc47871a	-0.012178207
165	0x3caf0c85	0.021368274
166	0xbda24696	-0.079236194
167	0xbd8f2ffd	-0.06991575
168	0x3dda32ea	0.10654242
169	0x3d523327	0.051318314
170	0x3bdcbb8f	0.006736226
171	0x3dace7ca	0.08442648
172	0xbd971f82	-0.073790565
173	0x3da0181d	0.07817099
174	0xbd9e71fa	-0.07736583
175	0x3d08e241	0.033418898
176	0xbd868d66	-0.06569938
177	0xbcdc8893	-0.026920592
178	0xbd52f3f7	-0.051502194
179	0xbb14464a	-0.0022624903
180	0x3a4cdfd5	0.0007815336
181	0xbd0fa3ef	-0.03506845
182	0xbe007953	-0.12546282
183	0xbd126d43	-0.03574873
184	0xbda77c59	-0.08178014
185	0xbde6fbd5	-0.11278502
186	0x3dc23981	0.09483624
187	0x3d73a765	0.05948581
188	0xbc4f4c5f	-0.012652486
189	0xbd535727	-0.051596787
190	0x3d025ee7	0.031828787
191	0x3dc3e303	0.095647834
192	0xba2624b2	-0.00063378655
193	0x3d45e2e0	0.048312068
194	0x3d5d1c57	0.053982105
195	0x3d2e40cd	0.042542268
196	0xbddbd3ab	-0.10733732
197	0xbdcffaba	-0.10155244
198	0x3d8e1fe2	0.06939675
199	0x3c135c76	0.008994212
200	0x3bc263b1	0.0059322943
201	0xb86d36f9	-5.65564e-05
202	0x3d90205d	0.07037423
203	0x3cac3d1e	0.021025237
204	0xbe075a8c	-0.13218135
205	0xbd9f785f	-0.07786631
206	0x3d83243d	0.06403396
207	0xbd469e9c	-0.048491105
208	0x3cf005fd	0.02929973
209	0xbdc411de	-0.095737204
210	0x3d150518	0.03638181
211	0x3cc215c3	0.023692017
212	0x3c2693a6	0.010167038
213	0x3c2059a6	0.009786999
214	0xbd92f36a	-0.07175334
215	0x3d94df79	0.072691865
216	0xbd681be4	-0.056667224
217	0x3da50c14	0.08058944
218	0xbd32bc30	-0.0436365
219	0xbd57f6f9	-0.052725766
220	0x3d689b64	0.056788817
221	0x3c55a37e	0.013039468
222	0x3d9efdad	0.077632286
223	0x3d0a1d63	0.03371943
224	0xbdc10ba8	-0.094260514
225	0x3d18d8ee	0.037316255
226	0x3d7f50ed	0.062333036
227	0xbd4c24d1	-0.0498398
228	0x3cd4be3c	0.025969617
229	0xbd8c216d	-0.06842313
230	0xbd544c02	-0.0518303
231	0xbd75a630	-0.059972942
232	0x3cdccf23	0.02695424
233	0xbd801120	-0.06253266
234	0xbdae46f3	-0.08509626
235	0x3da41a05	0.08012775
236	0xbda67865	-0.08128432
237	0xb9a82db5	-0.0003207751
238	0x3d7e372c	0.062064335
239	0x3cf6d92e	0.030132856
240	0xbdaebe71	-0.085324176
241	0xbd7b0a22	-0.06128896
242	0x3ac346a9	0.0014898378
243	0xbd118ee5	-0.035536665
244	0xbd561b44	-0.052272096
245	0x3d2fd3dd	0.042926658
246	0x3ca24d77	0.019812329
247	0xbdb5fff2	-0.08886708
248	0xbd773943	-0.060357343
249	0xbcb83189	-0.022484558
250	0x3d2cee42	0.042219408
251	0xbdbcabd7	-0.09212463
252	0x3c81c308	0.015840068
253	0x3beb109b	0.0071736104
254	0xbd34250e	-0.04398065
255	0x3d90588c	0.07048139

encoder.0.bias f4 [64]
0	0xbce01519	-0.02735381
1	0xbc59c8ca	-0.013292501
2	0xbc641397	-0.013920686
3	0xbb61532a	-0.0034381845
4	0x3c3b0874	0.01141559
5	0x3beb6da0	0.007184699
6	0xbc44286c	-0.011972528
7	0x3c348151	0.01101716
8	0xbc57e283	-0.013176563
9	0x3c597990	0.013273612
10	0x3bd035a5	0.006354051
11	0xbc7071ea	-0.014675597
12	0xbc5e2358	-0.013558231
13	0xbaf29cf4	-0.001850991
14	0xbc33ff27	-0.010986126
15	0xbc442757	-0.01197227
16	0x3b720d9e	0.0036934386
17	0x3b9f468b	0.0048607043
18	0xbcb3cfff	-0.021949766
19	0x3b9d9944	0.0048095305
20	0x3bec2b87	0.0072073373
21	0xbbfa4450	-0.007637538
22	0xbc0197bb	-0.0079097105
23	0x3b875729	0.0041302633
24	0xb9c6cfa0	-0.00037920196
25	0x3c0866b2	0.008325266
26	0xbbd25b9f	-0.0064196135
27	0xbb0305dc	-0.0019992506
28	0xbc6c0703	-0.014405969
29	0x3be337d1	0.006934144
30	0xbc196ace	-0.009363843
31	0xbc19e63b	-0.00939327
32	0xbc0e82f8	-0.008698218
33	0xb7835dbf	-1.566007e-05
34	0xbbb48da5	-0.0055100494
35	0xbcde39b0	-0.027127117
36	0x3a1801a1	0.00057985826
37	0x3c8632d1	0.016381653
38	0xbb460679	-0.003021626
39	0xbc9198ee	-0.017773118
40	0xbb88ba26	-0.0041725812
41	0xbc8a3e17	-0.01687531
42	0xbc49c43b	-0.012314851
43	0x3c634576	0.013871541
44	0xba8564f0	-0.0010177176
45	0x3bb3d83d	0.005488424
46	0x3b5104ad	0.0031893656
47	0xbb4c9190	-0.0031214692
48	0xbaa488f9	-0.0012553028
49	0xbbe72894	-0.007054398
50	0x3be60e9e	0.0070207855
51	0x3c531247	0.012882776
52	0x3b9a0981	0.00470084
53	0xbb6180be	-0.0034409012
54	0x3a840b51	0.0010074173
55	0x3beb184e	0.007174528
56	0x3af78e31	0.0018886981
57	0x3c549288	0.012974389
58	0xbc08b6fc	-0.008344408
59	0xbb286d2e	-0.0025699842
60	0x3b21a8eb	0.0024667333
61	0x3b02dffd	0.0019969933
62	0xb9d807ed	-0.00041204636
63	0x3b0d1845	0.0021529358

decoder.0.weight f4 [64, 64, 3, 3]
0	0xbd73889e	-0.05945646
1	0xba818617	-0.0009881881
2	0x3d060e34	0.03272839
3	0xbd8ab35a	-0.0677249
4	0xbc118e91	-0.008884088
5	0x3cbb6ada	0.0228781
6	0xbd8cd760	-0.06877017
7	0x3d4f325e	0.050585143
8	0x3ceed5cc	0.02915468
9	0xbd94824f	-0.07251417
10	0xbcce9985	-0.025219688
11	0xbc7b0326	-0.015320575
12	0xbbd79590	-0.0065791085
13	0x3ca1f71e	0.019771155
14	0xbca8ff52	-0.020629559
15	0xbcc95fa6	-0.024581742
16	0x38dfdeab	0.00010674944
17	0xbd833b1b	-0.06407758
18	0x3a963a00	0.0011461377
19	0xbaec88f6	-0.0018046189
20	0x3cccfee5	0.025023887
21	0xbd18d6ed	-0.037314344
22	0x3cd8a219	0.026444482
23	0x3ccc6925	0.02495248
24	0x3d45ad96	0.048261248
25	0xbc66a716	-0.014077922
26	0x3c35cd89	0.011096367
27	0x3c9c6aff	0.019093988
28	0x3c21e483	0.009881142
29	0xbd2ed3d2	-0.042682476
30	0xbd443d6d	-0.047910143
31	0xbd30edcc	-0.04319553
32	0xbc417ebb	-0.01181
33	0x3c02921f	0.007969408
34	0x3d2502df	0.04028594
35	0xbd336d77	-0.043805566
36	0x3cc2ac51	0.023763807
37	0xbd5b611f	-0.05355942
38	0xbabab015	-0.001424315
39	0x3cdc7336	0.026910406
40	0x3d8f54fa	0.0699863
41	0x3a867ca3	0.0010260533
42	0x3c3162a4	0.01082674
43	0x3b0bb81d	0.0021319457
44	0x3d62dc1d	0.055385698
45	0x3ce83afb	0.028348437
46	0x3d640870	0.05567211
47	0x3d90014c	0.07031497
48	0xbcbc976b	-0.02302142
49	0x3c32b288	0.010906823
50	0x3d4caa2a	0.04996697
51	0x3cb678b2	0.022274349
52	0x3d73fe8a	0.05956892
53	0xbb87107d	-0.0041218386
54	0xbd51d8d7	-0.051232185
55	0x3d0273e8	0.031848818
56	0x394445a5	0.00018717961
57	0xbd4b7f8a	-0.049682178
58	0xbd5f276a	-0.054480948
59	0xbc14ee45	-0.009090011
60	0x3d00d14e	0.03144961
61	0xbd071758	-0.032981247
62	0xbd3b508f	-0.045731124
63	0x3c6f6895	0.014612337
64	0xbcf23af6	-0.02956913
65	0xbd3f310a	-0.046677627
66	0xbd1a0d16	-0.037610136
67	0x3d95fb5f	0.07323336
68	0x3d91bd54	0.071161896
69	0x3d3142a4	0.043276444
70	0x3d8fb02c	0.07016024
71	0xbcea5015	-0.02860264
72	0x3d551b1a	0.0520278
73	0xbd4e261a	-0.050329305
74	0xbca0aee3	-0.019614642
75	0xbcde4031	-0.027130218
76	0xbd2a7031	-0.0416109
77	0xbb883767	-0.004156995
78	0xbc8615e1	-0.016367855
79	0x3d3a8029	0.04553238
80	0x3cc06290	0.023484498
81	0xbcab0044	-0.02087415
82	0xbcbd20b8	-0.02308689
83	0x3d620602	0.05518151
84	0x3d48670d	0.048926402
85	0xbd49c456	-0.049259506
86	0x3da1dcec	0.07903466
87	0xbd0b67b4	-0.034034446
88	0x3d350eea	0.044203676
89	0xbd04b5dd	-0.0324
90	0x3c5f2d5c	0.013621654
91	0x3d841e4d	0.06451092
92	0xbce04a4c	-0.027379178
93	0x3d3d086f	0.04615062
94	0xbc6dc813	-0.014513033
95	0xbcffcf02	-0.031226639
96	0xbcd34c9e	-0.02579337
97	0xbd39a30e	-0.045321517
98	0x3d511b00	0.05105114
99	0x3c4ee53c	0.012627896
100	0xbcc1237c	-0.02357649
101	0xbd20f87e	-0.03929948
102	0xbd1147b3	-0.03546877
103	0xbd53200c	-0.051544234
104	0xbd39c562	-0.045354255
105	0x3d706faa	0.05870024
106	0x3cab1c53	0.02088753
107	0xbd2ca193	-0.042146277
108	0xbd135c98	-0.035976976
109	0xbcf78fd5	-0.030219952
110	0x3b6b4e43	0.0035904802
111	0xbcef769d	-0.029231364
112	0x3c8fd5f6	0.01755808
113	0xbcfa0da3	-0.03052408
114	0x3d266b08	0.040629417
115	0xbd0d0d4d	-0.034436513
116	0xbcc33a39	-0.023831474
117	0x3c7d12ec	0.015446406
118	0xbc9767fb	-0.018482199
119	0x3c8205bc	0.015871875
120	0xbd3f3264	-0.046678916
121	0x3d3919d0	0.045190632
122	0xbc8ac384	-0.016938932
123	0x3c8fbb7b	0.017545452
124	0x3d2852f4	0.041094735
125	0xbc79588c	-0.015218865
126	0x3d59399f	0.053033467
127	0x3b506219	0.0031796752
128	0x3c62ec1d	0.013850239
129	0xbcdf8331	-0.027284237
130	0xbcfb1eef	-0.030654399
131	0x3d625ad7	0.055262413
132	0xbd84ae53	-0.06478562
133	0x3c4a5298	0.012348793
134	0x3c5b0754	0.013368446
135	0xbd8e17e2	-0.06938149
136	0x3c1176fa	0.008878464
137	0x3ce89f10	0.02839616
138	0x3d362951	0.044472996
139	0x3d3d3129	0.04618946
140	0x3c882279	0.016618
141	0x3d5b82a6	0.053591393
142	0xbd46823c	-0.048464045
143	0xbc6de9cd	-0.0145210745
144	0x3d4f9e7c	0.05068825
145	0x3d11dd64	0.035611525
146	0xbcc38848	-0.023868695
147	0x3d858b97	0.06520765
148	0x3bfdbc07	0.007743362
149	0xbb9cc944	-0.004784735
150	0x3d92d7af	0.07170045
151	0x3d8493e9	0.06473524
152	0xbd594b89	-0.05305055
153	0xbd11b835	-0.035576064
154	0xbd0478a6	-0.03234162
155	0x3b88e6ff	0.0041779275
156	0xbd86bbc6	-0.06578784
157	0x3d0d321a	0.03447161
158	0x3d2dac43	0.04240061
159	0xbd7e3198	-0.062059015
160	0xbc5d8f47	-0.0135229295
161	0x3bf490ad	0.0074635358
162	0xbd00a9ae	-0.03141182
163	0xbc0053ed	-0.007832509
164	0x3cb75284	0.022378214
165	0x3cbd0b84	0.02307678
166	0xbc4640fa	-0.012100453
167	0xbd024dc2	-0.031812437
168	0xbd48962f	-0.04897135
169	0x3d7217d8	0.05910477
170	0x3d4d9cca	0.050198354
171	0x3d07a60b	0.033117335
172	0xbb745745	-0.0037283462
173	0x3d1b8bb2	0.03797502
174	0x3c519759	0.012792432
175	0x3d39198d	0.045190383
176	0x3d6826cc	0.056677625
177	0x3c49a51e	0.012307433
178	0xbbc712a1	-0.006075219
179	0xbcb37018	-0.021904036
180	0x3d4b3425	0.049610276
181	0x3d8b2e01	0.06795884
182	0xbc218978	-0.009859435
183	0x3d44756f	0.047963556
184	0xbd3c6542	-0.045995004
185	0xbc0b9324	-0.008518968
186	0x3d59b78a	0.053153552
187	0x3b9544f7	0.0045553404
188	0x3d88787e	0.06663607
189	0x3d2d2ce3	0.042279135
190	0xbd0fa073	-0.035065126
191	0x3d03f270	0.03221363
192	0x3d5c57f6	0.053794824
193	0xbb466a1a	-0.0030275644
194	0x3ccea679	0.025225865
195	0x3d90d280	0.070714
196	0x3d38a462	0.045078643
197	0x3d6c2cd1	0.057659928
198	0x3c4b89e0	0.012423009
199	0x3c2b4c4d	0.010455203
200	0xbda89932	-0.08232345
201	0xbd4b1348	-0.049578935
202	0xbd36c97d	-0.044625748
203	0x3cace7ae	0.021106567
204	0xbd6071fe	-0.05479621
205	0x3d0ada9b	0.033899885
206	0xbc8d5a92	-0.017255101
207	0x3cfbf0d7	0.03075449
208	0xbbb29adf	-0.005450591
209	0x3d364df8	0.04450795
210	0x3d7446b3	0.059637737
211	0xbd262107	-0.04055884
212	0x3d9b8d22	0.07595278
213	0x3d29f198	0.041490167
214	0xbd239252	-0.039934464
215	0xbc35e833	-0.011102724
216	0x3da65254	0.081211716
217	0xbc79ea33	-0.015253591
218	0xbd1b714c	-0.037949845
219	0x3d29e57b	0.041478615
220	0x3c9540d9	0.018219398
221	0xbd7ba3b1	-0.061435405
222	0xbc9f72da	-0.019463945
223	0xbd5c58e8	-0.053795725
224	0x3d25bbbb	0.040462237
225	0x3bf20847	0.0073862406
226	0x3cde6e18	0.027152106
227	0x3d8b1caf	0.0679258
228	0x3d55b8c7	0.05217817
229	0x3ca355c8	0.019938365
230	0xbc47d6ee	-0.012197239
231	0x3d0a8c83	0.03382541
232	0xbd28d11b	-0.041215044
233	0xbd0976a6	-0.033560418
234	0x3aa25c24	0.0012387079
235	0x3b95c15b	0.004570169
236	0xbbb82383	-0.0056194677
237	0xbbed5e6b	-0.0072439215
238	0x3942357b	0.00018521205
239	0x3b45a341	0.0030157121
240	0x3b683963	0.0035434596
241	0x3c57c7af	0.013170167
242	0xbbc366ca	-0.005963181
243	0x3cec91fa	0.0288782
244	0xbd8966b5	-0.06709043
245	0xbc89d5c4	-0.016825564
246	0xbd90610a	-0.07049759
247	0x3d86ccff	0.06582069
248	0x3d8f6a39	0.07002682
249	0x3bcf122d	0.0063193054
250	0xbcdaf974	-0.026730277
251	0xbd0f6338	-0.03500673
252	0x3c013402	0.007885935
253	0xbc626ae9	-0.013819435
254	0xbc10dcf1	-0.008841739
255	0x3d6b2130	0.057404697

decoder.0.bias f4 [64]
0	0x3c0916f2	0.008367287
1	0x3c27a7ff	0.0102329245
2	0x3c082ae9	0.008311012
3	0x3bc0fbfe	0.005889415
4	0xbb8458aa	-0.00403889
5	0x3a9948f4	0.0011694715
6	0xbb398d99	-0.0028313159
7	0xbabae4e8	-0.0014258893
8	0x3b14d0da	0.0022707493
9	0x3c1f6332	0.00972824
10	0xbc474ef9	-0.012164825
11	0xad0545f4	-7.575707e-12
12	0x3bccd806	0.006251338
13	0xbba249af	-0.0049526314
14	0x3b80736e	0.0039200103
15	0x3b77c593	0.0037806972
16	0x3b62efac	0.003462772
17	0x3b72b9ae	0.0037036943
18	0x3bfcde18	0.0077169053
19	0x3be23e46	0.006904396
20	0xbb4b9b13	-0.0031067773
21	0xbb849ca8	-0.004046995
22	0xbba56c3f	-0.0050483043
23	0xbb8fd534	-0.0043894295
24	0x3c24631f	0.010033398
25	0xbb011ce6	-0.0019701063
26	0xbb9699c5	-0.0045959675
27	0x3bcfb198	0.0063383095
28	0xbbb8cf55	-0.0056399503
29	0xbb23bc58	-0.0024984088
30	0x3bfc8ddf	0.007707342
31	0x3bac9fe2	0.005268083
32	0xba827fad	-0.0009956263
33	0xb94306f2	-0.00018599237
34	0xbb370384	-0.002792568
35	0xbb7a0e17	-0.003815537
36	0x3c6fd663	0.014638516
37	0xbbab7f5a	-0.0052336873
38	0x3c789e2e	0.015174432
39	0x3b82727d	0.003980933
40	0x3b472302	0.0030385857
41	0xbb6d366a	-0.0036195763
42	0xb908860e	-0.0001301991
43	0xbb89a7c4	-0.0042009074
44	0xbbb39b79	-0.0054811803
45	0x3c4022b5	0.011727025
46	0xba93f0c7	-0.0011286967
47	0xbbb9ee54	-0.005674163
48	0x396ae7d7	0.00022402346
49	0xbae2f165	-0.0017314373
50	0xb99b96de	-0.0002967631
51	0xbb133d65	-0.0022467014
52	0xbb834ce2	-0.004006968
53	0x3ba8e3bf	0.0051541026
54	0xbaa68d10	-0.0012706835
55	0x3baea424	0.0053296257
56	0xbb2b9602	-0.002618194
57	0x3b2ed10b	0.0026674892
58	0xbb34e2ad	-0.002760093
59	0xba96ca0a	-0.0011504304
60	0xb99d6726	-0.00030022225
61	0x3b92c007	0.004478458
62	0xbb0f6b2e	-0.0021883952
63	0xbb6e7e88	-0.0036391336

final.weight f4 [1, 64, 1, 1]
0	0x3d3ec6b5	0.04657622
1	0x3cf53d41	0.029936435
2	0x3c962691	0.018328937
3	0x3d1863d0	0.037204564
4	0xbe11f1b3	-0.14252357
5	0xbdac4e63	-0.084133886
6	0xbc85b9da	-0.016323972
7	0xbe3993de	-0.18122813
8	0x3dc2fee7	0.09521275
9	0x3e6b9ec1	0.23009779
10	0x3e1926e7	0.14956246
11	0xb5bedfa8	-1.4221196e-06
12	0x3e8f5e37	0.28001568
13	0xbe90af66	-0.28258818
14	0x3e3d1777	0.18465982
15	0x3e057c61	0.13035728
16	0x3dc0efb7	0.09420722
17	0x3e52b138	0.20575416
18	0x3e98522c	0.29750192
19	0x3e94f761	0.29094985
20	0xbe926182	-0.28590018
21	0x3e76dbe8	0.24107325
22	0xbe57c076	-0.21069512
23	0xbcd0350d	-0.025415922
24	0x3db46e73	0.08810129
25	0xbdbe14c0	-0.092813015
26	0xbd5dbeb0	-0.054136932
27	0x3da58f81	0.08084012
28	0xbd653813	-0.05596168
29	0xbe11ba39	-0.14231195
30	0x3db7b11d	0.089693286
31	0x3dab0f51	0.08352531
32	0xbdaeaf7f	-0.08529567
33	0xbe89526d	-0.26820698
34	0x3d26fe7c	0.04077004
35	0xbe2c747b	-0.16841309
36	0x3e9287fc	0.28619373
37	0x3dd6fb9b	0.10497209
38	0x3e062b4d	0.13102455
39	0x3e414558	0.18874109
40	0x3da979f8	0.08275217
41	0x3e87cb9f	0.26522538
42	0xbe07a402	-0.13246158
43	0xbdff1c2f	-0.124565475
44	0xbe82ddcf	-0.25559852
45	0x3e7a3a89	0.24436392
46	0x3b8b2fdb	0.004247648
47	0xbc7783ca	-0.015107105
48	0x3d6cf978	0.0578551
49	0x3e0f9236	0.14020619
50	0xbe8ad3c3	-0.27114686
51	0x3a0af22b	0.0005300368
52	0xbe92d4e7	-0.28678057
53	0x3e551975	0.20810492
54	0xbd8598ba	-0.06523271
55	0x3dada6e6	0.08479099
56	0xbe47eb29	-0.195233
57	0x3da884f5	0.082284845
58	0xbbcc56e1	-0.0062359427
59	0xbe1fad42	-0.15593436
60	0xbe3bdf8b	-0.18346994
61	0x3e6b110a	0.22955719
62	0xbe5e0c78	-0.21684444
63	0xbe6426b8	-0.22280395
